Political-Alliance-Prediction/Party-Party Prediction/Upload/sm-project-model2.pth (torch, 398940 bytes, 5 tensors)

embeddings.weight f4 [482, 50]
1.2746975 0.8623158 -0.649189 -0.8681981 -0.96429753 -1.0236306 -0.20560686 0.74352044
-0.9818229 1.3403666 0.45599264 -0.3086623 -0.038004585 -0.6426632 0.5047206 1.1314192
-2.0405183 1.6949078 -1.7952363 -2.052076 -0.8819586 0.4926351 0.44851524 1.196544
-0.5022516 -0.020329108 -0.588252 0.5728532 -0.13989161 -0.77230954 0.47856337 -1.2399071
0.4685423 -0.69090617 0.96545845 0.91766894 0.1749768 -1.168872 0.15730838 0.396205
-1.2226751 -0.5920165 -0.2953935 1.4484464 2.3304405 1.7157459 0.5710464 -0.31064203
0.42150548 0.41991982 1.5671409 1.5486988 -0.89622307 -0.08468855 -0.7350172 0.9361873
-0.2835699 1.5662315 -0.013060357 0.6067232 -0.8553177 1.2928542 -0.70430565 0.5278449
-0.24689096 -0.0065494655 -0.04658977 0.22592399 -0.042545248 -0.47267753 -0.12823586 -1.7215279
-2.1445541 -0.8003091 0.5312741 1.1805682 0.33680898 -2.4498122 -0.003538884 0.60530466
-1.697153 -1.0458301 0.79916096 -0.50548756 0.5617826 0.5918244 0.4897835 0.37024918
0.014090181 1.2638099 2.077691 -0.19023584 1.6142958 0.042960368 -0.88798964 0.43001604
0.57565004 -0.18435198 0.84674156 0.3895711 -0.16559668 0.016476158 0.9155907 0.23397948
1.2975796 -0.10847495 -0.7248128 -0.06341746 -0.4149837 0.18852694 -0.7746331 -0.12314491
0.15453477 -1.6015208 0.30035684 -0.20165141 0.20048144 -0.78016543 -0.58661574 0.2434375
0.51070374 2.237837 0.1607906 1.2973262 0.57619625 -1.6191864 2.4043808 0.12921089
0.61027247 1.4648889 1.1691374 -0.035542753 -1.198087 -1.0612599 1.272296 2.3217416
-0.22704116 -1.2268296 0.24882698 1.7146983 0.48899505 -0.78367555 0.32001334 -0.43776524
-0.41255662 -0.07304332 -0.64355236 -0.042323973 -0.39852569 2.0654454 0.46642265 -0.038207322
-0.41050085 -1.1566764 0.25511873 1.9546305 0.038570274 -0.38877916 -0.52993065 -2.0605059
-1.3053627 0.31384593 -1.2305971 0.4287704 -0.30815265 -0.9657543 1.1400158 0.017587814
-0.78136086 -0.23253451 -0.110250786 -0.07138993 0.63325554 -0.7964261 -0.689448 -0.45571384
0.07553823 0.39613274 0.38763395 -0.25128785 0.23953749 -3.977323 -1.515783 0.44951037
-1.1651039 0.1546458 0.97947407 1.5092366 -1.9310148 0.96630406 -0.32243475 -1.3901196
0.1807598 -1.9443792 0.4868869 0.6982783 0.7096132 -0.499331 0.70008427 -0.51303273
-0.08202959 -1.1942226 -0.8617064 0.011009782 0.50484085 -0.3533126 -0.5576647 0.4582542
0.14825192 2.065239 1.726157 0.52768093 -0.35659307 -0.7197146 -0.39527446 -1.0258627
1.0770788 0.99008244 0.41035563 -0.13179067 -1.2338461 -0.62538326 0.5815427 1.3153517
0.05287036 -1.5561538 0.12026192 0.50024956 1.2314577 -0.89791155 0.6583912 0.37672096
-0.5485265 -0.2299138 0.5387909 -0.0025654028 -0.87206304 -1.2995632 -0.23129466 -1.3816775
0.041363668 -0.9650761 1.2375715 -0.3232498 0.45111024 -1.6600311 -1.015876 -0.58726513
-1.2220544 -0.42054826 1.4363589 -0.80165 -0.07723734 0.3414813 2.0084465 0.25590357
00000000: 4a29 a33f bac0 5c3f 4031 26bf 3b42 5ebf
00000010: 34dc 76bf 5406 83bf 9b8a 52be 5b57 3e3f
00000020: bf58 7bbf 2291 ab3f de77 e93e fc08 9ebe
00000030: b2aa 1bbd 9385 24bf 5f35 013f 58d2 903f
00000040: da97 02c0 bdf2 d83f 4eca e5bf 3755 03c0
00000050: 0ac8 61bf ab3a fc3e caa3 e53e 5b28 993f
00000060: 9093 00bf 3b89 a6bc af97 16bf 82a6 123f
00000070: bf3f 0fbe 14b6 45bf 4206 f53e 47b5 9ebf
00000080: c7e4 ef3e 3adf 30bf 4928 773f 5aec 6a3f
00000090: 1e2d 333e 999d 95bf 7315 213e 62db ca3e
000000a0: 9e80 9cbf 658e 17bf d13d 97be b166 b93f
000000b0: f025 1540 909d db3f 1930 123f 790c 9fbe
000000c0: 91cf d73e bbff d63e 1398 c83f c33b c63f
000000d0: e06e 65bf 3171 adbd 162a 3cbf f9a9 6f3f
000000e0: 1330 91be 467a c83f 1cfb 55bc 3652 1b3f
000000f0: 1af6 5abf 3f7c a53f 604d 34bf d820 073f
00000100: fcd0 7cbe e69c d6bb ead4 3ebd 9e58 673e
00000110: ed43 2ebd ca02 f2be 4350 03be 075b dcbf
00000120: 6040 09c0 0fe1 4cbf 9401 083f dc1c 973f
00000130: 3a72 ac3e b9c9 1cc0 9fec 67bb 3ff5 1a3f
00000140: 4f3c d9bf c3dd 85bf d095 4c3f a267 01bf
00000150: fcd0 0f3f ce81 173f e7c4 fa3e 4d91 bd3e
00000160: 81da 663c 86c4 a13f e4f8 0440 2fcd 42be
00000170: 3fa1 ce3f 36f7 2f3d 4a53 63bf 102b dc3e
00000180: cd5d 133f c4c6 3cbe 0ec4 583f dd75 c73e
00000190: 2d92 29be 02f9 863c 2764 6a3f 5198 6f3e
000001a0: 1717 a63f 1d28 debd 558d 39bf 03e1 81bd
000001b0: be78 d4be 350d 413e 5b4e 46bf 6633 fcbd
000001c0: 5d3e 1e3e a2fe ccbf 5fc8 993e b57d 4ebe
000001d0: 024b 4d3e ecb8 47bf 732c 16bf ae47 793e
000001e0: 7bbd 023f b938 0f40 4ba6 243e c90e a63f
000001f0: 9981 133f 8041 cfbf 60e1 1940 dc4f 043e
00000200: d13a 1c3f 7b81 bb3f 4ba6 953f 4795 11bd
00000210: ea5a 99bf 5dd7 87bf 98da a23f 6a97 1440
00000220: 7a7d 68be c108 9dbf 80cc 7e3e 3c7b db3f
00000230: 8f5d fa3e f69e 48bf cad8 a33e c422 e0be
00000240: 9f3a d3be bc97 95bd d9bf 24bf e75b 2dbd
00000250: 8f0b ccbe 4230 0440 f3ce ee3e 487f 1cbd
00000260: 2b2d d2be f90d 94bf ec9e 823e 5531 fa3f
00000270: ddfb 1d3d 100e c7be 89a9 07bf 54df 03c0
00000280: 2016 a7bf 6ab0 a03e 3584 9dbf cb87 db3e
00000290: 2fc6 9dbe ac3b 77bf 0aec 913f 5214 903c
000002a0: 4407 48bf 871d 6ebe 2acb e1bd e234 92bd
000002b0: 091d 223f 95e2 4bbf aa7f 30bf 5353 e9be
000002c0: cab3 9a3d e9d1 ca3e f577 c63e cda8 80be
000002d0: 5149 753e 768c 7ec0 2d05 c2bf 3926 e63e
000002e0: 2022 95bf 785b 1e3e d0be 7a3f aa2e c13f
000002f0: 7e2b f7bf b45f 773f 2b16 a5be 70ef b1bf
00000300: 1919 393e 6be1 f8bf 3d49 f93e 5ec2 323f
00000310: 36a9 353f 50a8 ffbe b938 333f 1d56 03bf
00000320: 21ff a7bd 49dc 98bf ca98 5cbf 5f62 343c
00000330: 403d 013f 64e5 b4be 1dc3 0ebf 4ba0 ea3e
00000340: 5acf 173e e02c 0440 b6f2 dc3f 1916 073f
00000350: 5e93 b6be 373f 38bf 6a61 cabe 784f 83bf
00000360: b8dd 893f 0b76 7d3f 221a d23e 22f4 06be
00000370: abee 9dbf 1e19 20bf fbdf 143f 725d a83f
00000380: 978e 583d 0c30 c7bf e24b f63d 5b10 003f
00000390: 68a0 9d3f 88dd 65bf 538c 283f 92e1 c03e
000003a0: 3c6c 0cbf 866e 6bbe 33ee 093f 5120 28bb
000003b0: 863f 5fbf 1658 a6bf 82d8 6cbe cfda b0bf
000003c0: f36c 293d 3a0f 77bf be68 9e3f ff80 a5be
000003d0: ecf7 e63e e67b d4bf 3a08 82bf 0257 16bf
000003e0: 476c 9cbf 1a52 d7be 9cda b73f ef38 4dbf
000003f0: 9c2e 9ebd a3d6 ae3e 638a 0040 cb05 833e

linear1.weight f4 [128, 100]
0.2939141 -0.46969151 0.08248284 0.550415 0.14156114 0.06880177 -0.0870388 0.11147789
-0.11234618 -0.11312018 -0.42473996 -0.23224899 0.04944528 0.12621005 -0.061508212 -0.04811324
0.09836002 -0.15903659 -0.15699683 -0.27181745 -0.3040555 0.6118427 -0.16815849 -0.20068583
-0.24945408 0.094762504 0.0069254558 0.12601599 -0.28046075 -0.027393527 0.36362606 -0.09862731
-0.16163588 0.056225054 -0.013409091 -0.32438952 0.08301031 -0.2602837 -0.089143544 -0.20625892
-0.18037619 -0.3646569 -0.15858446 0.119994015 0.2697585 0.15638159 -0.038276006 -0.22544533
-0.3806208 0.2724635 -0.17568907 0.031543728 -0.39618033 0.007849699 0.38146627 -0.32368642
0.028220642 0.22309104 0.30219817 0.015955228 0.4586784 -0.14540403 0.37590146 -0.03938541
-0.20259407 0.20078254 -0.2511653 -0.027483255 0.116865344 0.07678736 -0.13628258 0.115638845
0.39329758 -0.26434112 -0.026862528 -0.17059395 -0.07584226 0.16642055 0.13300101 0.11282923
-0.3407625 -0.37944335 0.001163839 -0.39273655 -0.22046441 -0.07340905 -0.36347446 -0.4190407
-0.02648795 -0.19420771 -0.117825136 0.13586167 -0.46160936 -0.13639006 -0.2237106 0.25194615
0.44272915 -0.00425099 0.04485381 0.347634 0.15252991 0.39644018 0.017550502 -0.028060824
-0.17926346 0.041867428 0.24977356 -0.10401192 0.2744455 0.0707818 -0.10745865 0.09813534
-0.17969348 -0.26544306 -0.0053563425 -0.015663981 -0.086414166 0.07382301 -0.10103987 -0.077826284
0.12057379 -0.24933185 -0.25761056 -0.30435222 0.16667554 -0.2863089 -0.051132664 0.2710766
0.085606635 0.08817689 -0.14691491 -0.03631644 0.11506338 0.029446948 0.08075968 -0.13364878
0.113780916 -0.034304995 -0.23092754 0.043198064 -0.13532218 0.13689703 0.3698116 0.13383897
-0.1801309 -0.037978698 0.19009048 -0.11316942 0.34513393 0.45799208 0.019962413 -0.12782112
-0.12439484 0.19698665 -0.12089737 -0.25510523 0.24934782 0.15244067 -0.23813923 -0.19095118
-0.21291688 0.25101772 0.24667801 0.25819004 0.27575046 -0.15272097 0.10682418 0.3312918
-0.059473764 0.038752668 0.09881136 -0.11247137 0.33977917 -0.023524059 -0.16640846 -0.278057
0.5933048 -0.10513089 -0.012797331 0.2023029 0.19295235 -0.2933637 -0.58467424 0.17831625
0.45272362 -0.046229668 -0.16027577 -0.27561873 -0.4571692 -0.29853716 -0.19114868 0.24610592
-0.0048828013 0.4334352 0.10609071 0.17661761 0.07763808 -0.39539188 -0.26787734 0.18888292
-0.24149811 -0.20325525 -0.04043816 -0.22899984 0.41954795 -0.4177655 0.42442384 0.16305146
-0.045262165 0.008237109 -0.2977674 -0.087043375 0.20177853 -0.517277 0.10939708 -0.22334671
-0.5581808 -0.16157371 0.20713884 -0.24611668 0.34548584 0.05618037 -0.3368132 -0.07397506
-0.72910994 0.085274525 0.40690115 -0.503584 -0.33066958 -0.04476084 0.21010388 0.07976059
0.06182779 -0.25654772 -0.32490748 -0.113019764 0.12650554 0.1987295 0.48295066 -0.45219636
0.15475525 0.13177313 0.21475622 -0.1728585 -0.06171039 0.30240542 0.34522283 -0.1495651
0.11452655 -0.10969344 -0.58869994 -0.29828078 0.22220676 0.0067256764 -0.43336797 -0.050392233
00000000: e97b 963e 687b f0be c3ec a83d ffe7 0c3f
00000010: 67f5 103e f1e7 8c3d 6641 b2bd 854e e43d
00000020: c115 e6bd 8eab e7bd 8477 d9be aed2 6dbe
00000030: 2287 4a3d 353d 013e 09f0 7bbd 6412 45bd
00000040: fa70 c93d 7dda 22be c7c3 20be a82b 8bbe
00000050: 2aad 9bbe b9a1 1c3f bd31 2cbe 9680 4dbe
00000060: e470 7fbe d812 c23d efee e23b 560a 013e
00000070: 8d98 8fbe 6468 e0bc 322d ba3e 1dfd c9bd
00000080: e083 25be 3e4c 663d ceb1 5bbc 6216 a6be
00000090: 4f01 aa3d e843 85be e490 b6bd 8a35 53be
000000a0: 89b4 38be 4fb4 babe f763 22be 6cbf f53d
000000b0: c91d 8a3e 7f22 203e 4dc7 1cbd 24db 66be
000000c0: bbe0 c2be 5680 8b3e d6e7 33be ff33 013d
000000d0: 26d8 cabe 069c 003c 8c4f c33e 3aba a5be
000000e0: fa2e e73c fa71 643e b8b9 9a3e 8ab4 823c
000000f0: e5d7 ea3e cbe4 14be 2876 c03e 9852 21bd
00000100: d274 4fbe f099 4d3e bd98 80be 9024 e1bc
00000110: 1957 ef3d b142 9d3d a98d 0bbe 0fd4 ec3d
00000120: 4d5e c93e b857 87be ce0e dcbc 2eb0 2ebe
00000130: 3053 9bbd 266a 2a3e 6b31 083e 0313 e73d
00000140: 6c78 aebe 6646 c2be f58b 983a c414 c9be
00000150: 6cc1 61be 7c57 96bd 5319 babe 818c d6be
00000160: 42fd d8bc 63de 46be 4e4e f1bd 521f 0b3e
00000170: 1058 ecbe d6a9 0bbe 6414 65be 16ff 803e
00000180: 65ad e23e e44b 8bbb a1b8 373d 15fd b13e
00000190: cd30 1c3e 35fa ca3e 12c6 8f3c d0df e5bc
000001a0: d790 37be 2e7d 2b3d a4c4 7f3e 3404 d5bd
000001b0: 1f84 8c3e 0cf6 903d 4813 dcbd 2efb c83d
000001c0: 9101 38be 27e8 87be 4284 afbb c051 80bc
000001d0: e9f9 b0bd 8530 973d feed cebd 6363 9fbd
000001e0: 64ef f63d d950 7fbe 88e5 83be 0ed4 9bbe
000001f0: feac 2a3e 1597 92be 7c70 51bd 8dca 8a3e
00000200: 8852 af3d 1696 b43d dd70 16be 8cc0 14bd
00000210: 59a6 eb3d ba3a f13c 5565 a53d 3adb 08be
00000220: f805 e93d 6583 0cbd 4578 6cbe 74f0 303d
00000230: e691 0abe bc2e 0c3e f257 bd3e 150d 093e
00000240: 3c74 38be 8d8f 1bbd 14a7 423e 5ec5 e7bd
00000250: 65b5 b03e f07d ea3e 3788 a33c 8ae3 02be
00000260: b9c2 febd deb6 493e 0a99 f7bd 279d 82be
00000270: 0955 7f3e 6819 1c3e c5da 73be b588 43be
00000280: e206 5abe 6585 803e 2999 7c3e 7c31 843e
00000290: 2a2f 8d3e e362 1cbe a3c6 da3d 149f a93e
000002a0: c39a 73bd 1ebb 1e3d 9c5d ca3d 6457 e6bd
000002b0: 89f7 ad3e 87b5 c0bc fb66 2abe 7d5d 8ebe
000002c0: d3e2 173f dd4e d7bd e6ab 51bc 7e28 4f3e
000002d0: 4d95 453e c433 96be 36ad 15bf 8998 363e
000002e0: 64cb e73e 525b 3dbd 551f 24be e61d 8dbe
000002f0: 1512 eabe ddd9 98be 7bbc 43be 3103 7c3e
00000300: e8ff 9fbb 38eb dd3e 1646 d93d 3fdb 343e
00000310: b700 9f3d ce70 cabe 3827 89be 866a 413e
00000320: 484b 77be 2522 50be 7ca2 25bd ef7e 6abe
00000330: fdce d63e 5ce5 d5be 154e d93e f6f6 263e
00000340: d264 39bd f0f4 063c f874 98be cc43 b2bd
00000350: 089f 4e3e 446c 04bf 940b e03d 00b5 64be
00000360: f0e4 0ebf 9473 25be 341c 543e 0306 7cbe
00000370: 85e3 b03e 631d 663d c872 acbe 3c80 97bd
00000380: f3a6 3abf 69a4 ae3d 5955 d03e e2ea 00bf
00000390: 864d a9be 2457 37bd 7925 573e 8559 a33d
000003a0: 233f 7d3d 395a 83be 465a a6be e876 e7bd
000003b0: ab8a 013e bf7f 4b3e 4f45 f73e 4886 e7be
000003c0: 2978 1e3e 89ef 063e 0ee9 5b3e d201 31be
000003d0: 09c4 7cbd e2d4 9a3e 0cc1 b03e 9827 19be
000003e0: e58c ea3d f4a6 e0bd 0ab5 16bf 42b8 98be
000003f0: 2b8a 633e 1063 dc3b 68e2 ddbe 1668 4ebd

linear1.bias f4 [128]
-0.52722734 -0.6927279 -1.1155027 -0.6999584 -0.6651064 -1.3253552 -0.9642016 -1.2707754
-1.0363369 -1.291308 -1.1682103 -1.2580825 -1.3712857 -0.8161783 -0.5007868 -0.6954275
-0.7958141 -1.1057413 -0.92039776 -1.2338058 -0.7166837 -0.77886075 -1.0226012 -1.0812308
-1.0576922 -0.59140193 -0.9984374 -1.0113993 -1.177453 -0.9854834 -0.9897295 -1.1758528
-1.3477207 -0.81797 -0.8617135 -1.1525009 -0.92419916 -0.9237419 -0.91440815 -0.9097773
-0.88462985 -1.0984908 -0.7294644 -1.3369775 -0.7434462 -1.0194505 -0.8204924 -1.1970967
-0.8288451 -1.0454723 -0.88186073 -0.8987441 -0.8940119 -0.65761626 -0.49227738 -0.62057734
-0.97301924 -0.5967008 -0.7930695 -0.73707545 -0.8854429 -0.90387464 -0.7637129 -0.70567
-0.8674159 -1.2747456 -0.9112123 -0.8591242 -0.92694163 -0.99530345 -0.8590983 -1.0086039
-0.82076377 -0.90097296 -1.2201346 -1.189081 -0.83870184 -0.853718 -1.1157858 -1.0391445
-0.7331297 -0.94508773 -1.0202013 -0.8245564 -0.81148094 -0.8889187 -1.0605307 -1.1256807
-0.85428107 -1.2607697 -0.78156143 -0.9703985 -0.7903028 -0.77813685 -0.929269 -0.98193467
-1.1559249 -0.9702428 -1.1448656 -1.1248102 -1.0751588 -0.96277076 -0.96332484 -1.003239
-1.0552688 -1.2384862 -1.1168697 -0.9276182 -0.6168608 -0.98719317 -0.85399705 -0.91521233
-1.1633598 -1.1432378 -1.0057675 -0.9888741 -1.1913447 -0.93351924 -1.1015596 -1.4043367
-1.3078206 -0.87890714 -0.7512926 -0.97597516 -0.6777417 -0.7892007 -0.94916445 -0.66231066
00000000: 5ff8 06bf 9e56 31bf cbc8 8ebf 7930 33bf
00000010: 6a44 2abf 3da5 a9bf ebd5 76bf c5a8 a2bf
00000020: b0a6 84bf 9549 a5bf ea87 95bf d908 a1bf
00000030: 4a86 afbf 10f1 50bf 9033 00bf 8907 32bf
00000040: 79ba 4bbf ee88 8dbf 309f 6bbf 59ed 9dbf
00000050: 9578 37bf 6b63 47bf 99e4 82bf c565 8abf
00000060: 7562 87bf 1e66 17bf 9899 7fbf 8875 81bf
00000070: c8b6 96bf a448 7cbf ea5e 7dbf 5882 96bf
00000080: 1d82 acbf 7b66 51bf 4299 5cbf 2685 93bf
00000090: 5198 6cbf 597a 6cbf a716 6abf 2ae7 68bf
000000a0: 1a77 62bf 599b 8cbf 2ebe 3abf 1422 abbf
000000b0: 7d52 3ebf 5b7d 82bf ca0b 52bf 773a 99bf
000000c0: 312f 54bf 09d2 85bf a0c1 61bf 1814 66bf
000000d0: f7dd 64bf 8a59 28bf c80b fcbe 28de 1ebf
000000e0: ca17 79bf 62c1 18bf 9a06 4bbf fab0 3cbf
000000f0: 63ac 62bf 5464 67bf b082 43bf caa6 34bf
00000100: f80e 5ebf dd2a a3bf 3645 69bf 90ef 5bbf
00000110: 0c4c 6dbf 35cc 7ebf deed 5bbf ef19 81bf
00000120: 931d 52bf 2aa6 66bf 5f2d 9cbf ce33 98bf
00000130: 2ab5 56bf 438d 5abf 12d2 8ebf b002 85bf
00000140: 63ae 3bbf 45f1 71bf f595 82bf 2116 53bf
00000150: 37bd 4fbf 2d90 63bf 78bf 87bf 4e16 90bf
00000160: 2ab2 5abf e760 a1bf 6914 48bf 096c 78bf
00000170: 4951 4abf fa33 47bf 93e4 6dbf 1260 7bbf
00000180: 59f5 93bf d561 78bf f58a 92bf c8f9 8fbf
00000190: ce9e 89bf 2578 76bf 759c 76bf 236a 80bf
000001a0: 0c13 87bf b786 9ebf 96f5 8ebf 6378 6dbf
000001b0: 97ea 1dbf b1b8 7cbf 8d9f 5abf 5b4b 6abf
000001c0: f9e8 94bf 9e55 92bf fdbc 80bf da26 7dbf
000001d0: fc7d 98bf 1efb 6ebf e8ff 8cbf 4ec1 b3bf
000001e0: aa66 a7bf 0f00 61bf b654 40bf 82d9 79bf
000001f0: 7b80 2dbf 0f09 4abf 71fc 72bf 318d 29bf

linear2.weight f4 [482, 128]
0.1995224 0.04629827 -0.09327259 -0.11748104 0.26952958 -0.21161804 0.16823754 -0.058119196
-0.07572349 0.010887485 0.25056797 0.029564844 0.24527271 -0.12277669 -0.12487667 -0.19194975
-0.24989831 -0.21899566 -0.3542227 0.2668265 -0.26311085 -0.15962215 -0.31136245 -0.24266411
0.09245993 0.027730906 0.13716222 0.3316895 0.051481653 0.008259317 0.30073172 -0.16511206
0.08671856 -0.15412425 -0.16314614 -0.16672213 -0.18464679 -0.20597112 -0.22350977 0.03998293
0.16073763 0.35206467 -0.07215578 0.538647 -0.08846943 -0.16402878 -0.03680149 -0.082121044
0.1624356 -0.12414301 0.06710191 0.1351243 -0.37952697 0.11686972 -0.0822501 -0.100611046
0.22311497 0.30594075 0.12616168 0.21892238 0.23289567 -0.13029954 -0.014813594 -0.18539305
0.09482558 -0.22772692 -0.14202537 0.031763 0.1341382 -0.17911278 -0.20459068 0.13688499
-0.15920492 -0.20341882 -0.39825267 0.045900628 -0.013345668 -0.16516183 0.27033475 0.51550037
-0.16674559 0.29472908 -0.17179379 0.24520676 0.31371108 -0.10504058 0.17277914 0.4809721
0.10017366 0.18632554 0.33127668 0.057925086 0.050217673 0.28015965 -0.117213145 0.006457746
-0.24997462 -0.13825272 -0.0120982155 0.084066756 -0.22582325 0.13858107 0.08326524 -0.5659765
-0.090775706 -0.2112242 -0.117273755 0.13980173 0.08191082 0.22452739 -0.2144699 0.124398634
0.087847084 -0.0890098 -0.060981657 0.16669407 0.28289157 -0.23694535 0.09793723 0.006260726
0.38428068 -0.01937737 -0.08501288 -0.015262247 0.79560316 0.17473152 0.10232873 -0.28695464
-0.26014706 0.1965109 -0.049926396 0.0011048957 0.25151694 -0.1630449 0.03223293 -0.04481496
0.03472261 0.07567361 -0.095125675 0.41824552 -0.20031407 -0.086203784 0.25211418 -0.05367513
0.19995186 -0.22961657 -0.1351499 -0.21451484 -0.20380627 -0.12659323 0.18048343 0.08301578
-0.1511062 -0.07574543 0.0034674015 -0.02808484 0.27285108 0.14389686 0.024140814 0.5592637
-0.12345301 0.014650215 -0.33591425 -0.16558145 -0.29787636 -0.25541228 0.19218738 0.37645313
-0.03129415 -0.06825286 0.07170979 -0.24569902 -0.22845882 0.14364722 -0.058458205 -0.25581974
-0.15962182 -0.06640774 0.585985 0.11305511 0.16780499 0.13089573 -0.12180517 0.09017171
-0.015676528 0.34922916 0.07886509 0.028426636 0.1559001 -0.07294324 -0.035163026 -0.050239936
-0.08058946 0.010951555 0.07532132 -0.12703016 -0.20775479 -0.1784747 -0.15635373 -0.11024164
-0.19315456 -0.07213688 0.29371366 0.08581994 -0.14762163 -0.08722486 0.1115748 -0.16430618
-0.08015235 0.25962394 -0.2600435 0.052017584 -0.17365465 0.09323355 0.09102839 0.09056282
0.4111924 -0.40350282 0.046599872 -0.048303448 0.3647604 0.04554046 -0.08072034 -0.08560199
0.4562021 -0.18283823 -0.04973512 -0.17340006 0.035030138 -0.17547366 -0.19757292 -0.25202388
0.04185199 0.33852553 -0.0330705 -0.14855869 -0.042430844 -0.14180782 0.04120801 0.157759
-0.06413971 0.09720624 0.058949254 0.33778742 0.21891518 -0.11439378 -0.18737717 -0.22879557
-0.119249664 0.17106569 -0.10215018 -0.1554362 -0.24089621 -0.2044946 0.11188738 -0.0755543
00000000: 9a4f 4c3e 41a3 3d3d b305 bfbd e699 f0bd
00000010: c8ff 893e 66b2 58be 7646 2c3e 650e 6ebd
00000020: eb14 9bbd 6c61 323c 724a 803e f931 f23c
00000030: c528 7b3e 5872 fbbd 57bf ffbd 7a8e 44be
00000040: 58e5 7fbe 6640 60be ae5c b5be 7c9d 883e
00000050: 77b6 86be fd73 23be e66a 9fbe f17c 78be
00000060: a25b bd3d ed2b e33c 4174 0c3e 35d3 a93e
00000070: 6dde 523d 1652 073c 82f9 993e 2313 29be
00000080: 8099 b13d bfd2 1dbe c80f 27be 35b9 2abe
00000090: 0c14 3dbe 18ea 52be bfdf 64be 24c5 233d
000000a0: 6898 243e d241 b43e 69c6 93bd c5e4 093f
000000b0: 762f b5bd 29f7 27be 29bd 16bd 142f a8bd
000000c0: 8555 263e b13e febd ba6c 893d 065e 0a3e
000000d0: 5c51 c2be 6459 ef3d be72 a8bd 2a0d cebd
000000e0: 4078 643e 44a4 9c3e 8730 013e 302d 603e
000000f0: 347c 6e3e 3e6d 05be b7b4 72bc add7 3dbe
00000100: ea33 c23d 3f31 69be 196f 11be eb19 023d
00000110: 865b 093e 5769 37be 3880 51be 942b 0c3e
00000120: 9d06 23be 064d 50be c6e7 cbbe 4c02 3c3d
00000130: caa7 5abc 2f20 29be 5169 8a3e d5f7 033f
00000140: 5bbf 2abe bbe6 963e b6ea 2fbe 7b17 7b3e
00000150: bd9e a03e 841f d7bd 04ed 303e fa41 f63e
00000160: d927 cd3d 1fcc 3e3e 199d a93e db42 6d3d
00000170: 0cb1 4d3d 1671 8f3e 720d f0bd 809b d33b
00000180: 59f9 7fbe 1f92 0dbe 9837 46bc 312b ac3d
00000190: 363e 67be 32e8 0d3e f786 aa3d d6e3 10bf
000001a0: 9de8 b9bd 284b 58be 392d f0bd 2f28 0f3e
000001b0: dcc0 a73d 82ea 653e ff9d 5bbe b6c4 fe3d
000001c0: 2ce9 b33d c54a b6bd e7c7 79bd dab1 2a3e
000001d0: 2ad7 903e cda1 72be 5093 c83d c726 cd3b
000001e0: 70c0 c43e 4abd 9ebc 3c1b aebd 810e 7abc
000001f0: a6ac 4b3f d2ec 323e ba91 d13d b8eb 92be
00000200: ff31 85be 273a 493e 9f7f 4cbd 26d2 903a
00000210: d4c6 803e 3ef5 26be ad06 043d e48f 37bd
00000220: 4c39 0e3d c4fa 9a3d 40d1 c2bd 4724 d63e
00000230: 221f 4dbe 9c8b b0bd 1c15 813e 74da 5bbd
00000240: 2ec0 4c3e 9b20 6bbe bc64 0abe c7a9 5bbe
00000250: 97b2 50be a8a1 01be a6d0 383e 2d04 aa3d
00000260: 95bb 1abe 6c20 9bbd 583d 633b 2e12 e6bc
00000270: 23b3 8b3e b359 133e f5c2 c53c e82b 0f3f
00000280: efd4 fcbd 7507 703c f4fc abbe 2f8e 29be
00000290: 4083 98be 66c5 82be c5cc 443e 77be c03e
000002a0: 4b2e 00bd 28c8 8bbd 95dc 923d 8698 7bbe
000002b0: 1cf1 69be 4218 133e df71 6fbd cefa 82be
000002c0: e773 23be c800 88bd 1d03 163f 7089 e73d
000002d0: 12d5 2b3e 8809 063e fd74 f9bd f2ab b83d
000002e0: 106c 80bc 2ace b23e 0584 a13d fade e83c
000002f0: 47a4 1f3e 4463 95bd 1b07 10bd 64c8 4dbd
00000300: 160c a5bd 276e 333c 1042 9a3d 3214 02be
00000310: acbd 54be 12c2 36be 311b 20be 5ec6 e1bd
00000320: 4fca 45be 80bc 93bd a361 963e 5dc2 af3d
00000330: 202a 17be f3a2 b2bd 5481 e43d e13f 28be
00000340: ea26 a4bd 6eed 843e 6c24 85be 6410 553d
00000350: 86d2 31be 3bf1 be3d 186d ba3d 0079 b93d
00000360: cf87 d23e ec97 cebe 82df 3e3d d6d9 45bd
00000370: e0c1 ba3e a288 3a3d b550 a5bd 1950 afbd
00000380: 5293 e93e f239 3bbe 0eb7 4bbd c98f 31be
00000390: c37b 0f3d 5eaf 33be 8e50 4abe 4609 81be
000003a0: fe6c 2b3d 3853 ad3e ef74 07bd c51f 18be
000003b0: f7cb 2dbd 1236 11be bbc9 283d 938b 213e
000003c0: ae5b 83bd 1114 c73d c674 713d 79f2 ac3e
000003d0: 4d2b 603e 4947 eabd cddf 3fbe 6349 6abe
000003e0: 2b39 f4bd d82b 2f3e 1d34 d1bd ab2a 1fbe
000003f0: 7fad 76be 0867 51be 3625 e53d 36bc 9abd

linear2.bias f4 [482]
0.08731051 0.018156957 -0.08131872 0.20144507 0.08685104 0.2552959 -0.03483537 -0.016941974
0.09352464 0.11172842 0.022468658 0.022096034 0.11446768 0.14846814 -0.04301253 -0.07491236
-0.05461234 -0.13892905 0.0070074145 -0.08971883 0.13928488 -0.18731242 0.14368895 -0.0011013513
-0.07424309 -0.003747743 -0.19119301 0.031463996 0.014803505 0.006367798 0.14918424 0.00017688057
-0.1279279 -0.10291528 -0.08140504 -0.011495803 -0.07382042 0.010874221 -0.03171928 0.1714025
0.20341055 -0.06079919 -0.06276742 -0.049137387 0.0863496 0.11542049 -0.057548255 -0.08240846
0.011475031 -0.030577814 0.07263462 0.1043382 0.20085062 0.026034957 -0.030552259 0.027794072
0.072371416 -0.087316416 0.056824375 -0.017481992 -0.14441775 -0.11360502 0.014111743 0.05519166
-0.16120933 -0.039924536 -0.09496574 0.08342108 -0.0040106154 0.21429314 -0.11720452 -0.026722081
-0.1911705 -0.16560516 0.01184234 0.37128025 -0.081842005 -0.0014455382 -0.038999174 0.1472675
-0.006608487 -0.037894048 0.05939188 -0.01314171 0.0062648347 0.029083526 0.07813596 -0.039954394
0.07262399 -0.12723725 0.14463672 -0.047096953 -0.015613763 0.008382844 -0.05218684 0.11842688
0.027990015 -0.10511815 -0.03944552 -0.092488274 -0.11858088 0.32860297 0.09984166 0.062167738
-0.03203539 0.01236176 0.19332479 -0.053008914 0.0075101587 -0.054043222 -0.033899363 0.05950335
-0.043645088 -0.039412808 0.07179419 -0.0725725 0.012815127 0.26861653 0.031135438 -0.08941162
0.07402578 -0.07998713 0.10001325 -0.07716074 -0.08592675 0.041098844 0.056659732 0.0039389567
-0.08523468 -0.0022032913 -0.041725617 0.18906683 0.0030337272 -0.014463218 -0.08806288 -0.0745778
0.027191216 0.016953632 0.03998813 0.004388846 0.08065224 -0.008857984 0.035508383 -0.051648818
-0.092394546 0.06951553 0.008461889 -0.085998766 0.038097158 -0.060341444 0.3238697 0.2559564
-0.08103395 -0.10125021 -0.09292851 -0.0753355 -0.027040493 0.010103192 0.13588066 -0.009037445
-0.13895833 0.029943187 0.1115595 -0.010502708 -0.083357476 0.022249388 -0.09110984 -0.025230402
0.08917624 -0.016773222 -0.066300735 -0.09293608 -0.0403457 -0.17955023 -0.008964016 -0.05510225
-0.12540223 -0.15309878 -0.16745454 -0.014503935 -0.005414223 -0.06378676 0.054707933 -0.048006546
0.11818907 0.0041187084 0.02037532 0.07319142 -0.05968796 0.04054579 0.13557467 -0.16331187
0.18355873 0.07219835 0.0719698 0.018633533 -0.08866866 0.045762066 0.112442665 -0.14494962
0.0078019476 -0.024749767 -0.051304474 -0.0197841 -0.15255134 -0.029140651 -0.057903726 0.09092858
0.09736718 -0.06448747 -0.20153846 -0.011577497 -0.08493177 -0.060440686 -0.105511166 -0.052700423
-0.0048763845 -0.071481556 0.017657124 -0.045967493 -0.06020215 -0.049812686 -0.063501514 0.127911
-0.047276326 0.06389693 0.0047742547 -0.01982991 0.083883345 -0.02476423 -0.12484418 -0.059357908
-0.13352132 0.029486457 -0.048737302 0.08162656 -0.0024366707 -0.0839531 -0.11120919 -0.036043767
0.015188281 0.17063604 0.055368263 -0.027369386 -0.0068528643 -0.21641913 -0.09378937 0.13521248
0.05142546 0.01237535 0.061978363 -0.0120090535 -0.10838275 -0.10722049 -0.02975302 -0.039719816
00000000: dacf b23d e6bd 943c 6e8a a6bd 9e47 4e3e
00000010: f5de b13d 25b6 823e 88af 0ebd e5c9 8abc
00000020: d989 bf3d dfd1 e43d 3110 b83c be02 b53c
00000030: 086e ea3d 0808 183e e82d 30bd a76b 99bd
00000040: 30b1 5fbd 6b43 0ebe 749e e53b 82be b7bd
00000050: b2a0 0e3e d4ce 3fbe 3223 133e 385b 90ba
00000060: c30c 98bd b29c 75bb 1ac8 43be 64e0 003d
00000070: 668a 723c f6a8 d03b c1c3 183e 0479 3939
00000080: 88ff 02be 3fc5 d2bd b0b7 a6bd e458 3cbc
00000090: 292f 97bd ca29 323c 13ec 01bd 2384 2f3e
000000a0: db4a 503e 9208 79bd 358c 80bd 4944 49bd
000000b0: 0fd8 b03d 9461 ec3d b8b7 6bbd c4c5 a8bd
000000c0: c501 3c3c 537e fabc 76c1 943d 44af d53d
000000d0: c9ab 4d3e 4347 d53c bb48 fabc 65b0 e33c
000000e0: 7737 943d f3d2 b2bd adc0 683d 6536 8fbc
000000f0: 3fe2 13be c0a9 e8bd f134 673c a610 623d
00000100: 0f14 25be e987 23bd 667d c2bd acd8 aa3d
00000110: 7b6b 83bb a96f 5b3e ec08 f0bd 44e8 dabc
00000120: 33c2 43be 6694 29be 6006 423c 7218 be3e
00000130: c89c a7bd 3778 bdba 99bd 1fbd 4bcd 163e
00000140: 028c d8bb ca36 1bbd e644 733d 5450 57bc
00000150: 3e49 cd3b 9340 ee3c bf05 a03d 38a7 23bd
00000160: e3bb 943d 7b4a 02be a61b 143e bce8 40bd
00000170: ded0 7fbc 3258 093c dec1 55bd cb89 f23d
00000180: 514b e53c 2f48 d7bd a091 21bd 7e6a bdbd
00000190: 88da f2bd a63e a83e c979 cc3d 99a3 7e3d
000001a0: 8b37 03bd fb88 4a3c eff6 453e e01f 59bd
000001b0: c717 f63b 6d5c 5dbd 0fda 0abd c9b9 733d
000001c0: 31c5 32bd 536f 21bd d508 933d e4a0 94bd
000001d0: 8af6 513c 1b88 893e bf0f ff3c 701d b7bd
000001e0: d49a 973d 4bd0 a3bd bfd3 cc3d 7306 9ebd
000001f0: 5dfa afbd 4357 283d 0914 683d 5d12 813b
00000200: 858f aebd 1865 10bb 7be8 2abd bc9a 413e
00000210: 7fd1 463b 22f7 6cbc 505a b4bd 3fbc 98bd
00000220: 1dc0 de3c 58e2 8a3c 98ca 233d 4fd0 8f3b
00000230: 002d a53d 1421 11bc 3d71 113d b68d 53bd
00000240: 5a39 bdbd 285e 8e3d bca3 0a3c 1f20 b0bd
00000250: c40b 1c3d 9728 77bd 40d2 a53e b80c 833e
00000260: 21f5 a5bd 455c cfbd 4d51 bebd 8049 9abd
00000270: 0684 ddbc dc87 253c 4d24 0b3e cb11 14bc
00000280: 184b 0ebe 6a4b f53c 4f79 e43d 8d13 2cbc
00000290: 53b7 aabd 5944 b63c cc97 babd fdaf cebc
000002a0: 08a2 b63d ff67 89bc aec8 87bd 4655 bebd
000002b0: 8841 25bd 04dc 37be cfdd 12bc e6b2 61bd
000002c0: 7169 00be edc5 1cbe 3479 2bbe eaa1 6dbc
000002d0: cb69 b1bb a2a2 82bd 6d15 603d 83a2 44bd
000002e0: 1c0d f23d 3bf6 863b 25ea a63c 62e5 953d
000002f0: 5d7b 74bd 5813 263d 16d4 0a3e 3a3b 27be
00000300: d2f6 3b3e bbdc 933d e764 933d 5aa5 983c
00000310: ea97 b5bd 0171 3b3d 5748 e63d ac6d 14be
00000320: 7ba7 ff3b 06c0 cabc a424 52bd 4412 a2bc
00000330: 6b36 1cbe 60b8 eebc 752c 6dbd c338 ba3d
00000340: 7268 c73d 0212 84bd 1960 4ebe 8baf 3dbc
00000350: b5f0 adbd a790 77bd 3d16 d8bd 66dc 57bd
00000360: 14ca 9fbb ec64 92bd aca5 903c 6948 3cbd
00000370: 8896 76bd 6308 4cbd 150d 82bd 1afb 023e
00000380: d2a4 41bd 65dc 823d 5a71 9c3b 5672 a2bc
00000390: 08cb ab3d 5bde cabc 4eae ffbd 4721 73bd
000003a0: d0b9 08be 958d f13c c4a0 47bd d32b a73d
000003b0: 8db0 1fbb 9aef abbd a5c1 e3bd a1a2 13bd
000003c0: 45d8 783c 37bb 2e3e d5c9 623d c335 e0bc
000003d0: fe8d e0bb fa9c 5dbe a414 c0bd 2475 0a3e
000003e0: 81a3 523d fbc1 4a3c 06dd 7d3d 9fc1 44bc
000003f0: c6f7 ddbd 6b96 dbbd 9bbc f3bc 3fb1 22bd
