Political-Alliance-Prediction/Party-Party Prediction/Upload/sm-project.pth (torch, 280860 bytes, 5 tensors)

embeddings.weight f4 [482, 10]
0	0xbfbf5a3c	-1.4949412
1	0xbf9ebe31	-1.2401792
2	0xbf76adc2	-0.96358883
3	0xbfccae68	-1.5990725
4	0xbe470db0	-0.19438815
5	0xbf196342	-0.5991708
6	0xbf9508f4	-1.1643357
7	0xbfdc65cc	-1.7218566
8	0xbf3816ea	-0.71909964
9	0x3ea04b74	0.31307566
10	0xbee20c81	-0.44150165
11	0xbebbb3dc	-0.3666066
12	0xbe977d9f	-0.2958803
13	0x4014fb09	2.327822
14	0x3ea61d67	0.32444307
15	0x3efb754a	0.49112922
16	0xbf1f3f3e	-0.62205875
17	0xbfd8f57e	-1.6949918
18	0x3f2aff84	0.66796136
19	0x3ec219fe	0.37910455
20	0x3ec0eb78	0.37679648
21	0x3edd2f32	0.4320007
22	0xbeb8572e	-0.36004013
23	0x3f85fea9	1.0468341
24	0x3fac0705	1.3439642
25	0xbf0619eb	-0.523833
26	0xc01c083c	-2.4380026
27	0xbfca7942	-1.5818255
28	0x3f0b5256	0.5442251
29	0xbf2ac823	-0.66711634
30	0xbf134b5d	-0.5753687
31	0xbe9981d4	-0.29981863
32	0x3ff6e075	1.9287249
33	0xbd74a366	-0.05972614
34	0x3e20d0f7	0.15704714
35	0xbf6f48d7	-0.9347052
36	0x3e9b79be	0.3036632
37	0x3ba822b4	0.00513109
38	0xbd54cdc3	-0.051954042
39	0xbebaac84	-0.36459744
40	0xbef4f307	-0.47841665
41	0x3f3497fb	0.70544404
42	0xbe9fb062	-0.31189257
43	0x3e1c81a5	0.1528383
44	0x402e3d87	2.7225053
45	0xbf9cb9eb	-1.2244238
46	0x3fcd116d	1.6020943
47	0xbf284433	-0.65729064
48	0xbf95f7ec	-1.1716285
49	0x3f8c04f9	1.0939018
50	0xbe65a2c0	-0.22425365
51	0xbec3acf0	-0.38217878
52	0x3f6adf7d	0.91747266
53	0x3ea7054b	0.32621226
54	0x3f9b4ba5	1.213246
55	0x3ff11a21	1.8836099
56	0x3e5406c2	0.20705703
57	0x3f3adc6b	0.7299258
58	0xbea21b55	-0.31661478
59	0xbf0f2d1e	-0.5592822
60	0x3fd05bf3	1.6278061
61	0xbf609ed3	-0.87742347
62	0xc05c6474	-3.4436312
63	0xbf3ce08d	-0.7378014
64	0x3ba424b9	0.0050092605
65	0xbf8f1081	-1.1176912
66	0xbf24f1ec	-0.64431643
67	0xbf8c5ee9	-1.0966464
68	0xbe73ad05	-0.2379647
69	0xbcda352a	-0.026636679
70	0x3fc38535	1.5275027
71	0xbeb54d57	-0.35410568
72	0xbfc8fb1b	-1.5701631
73	0xbf6da09a	-0.92823184
74	0xbfb4d296	-1.4126766
75	0xbfabba42	-1.3416216
76	0xbf5c8025	-0.86133033
77	0xbebc1805	-0.36737075
78	0x3faf310e	1.3686845
79	0xbfa6e2c1	-1.303795
80	0xbf30227e	-0.6880263
81	0x3dac14ff	0.08402442
82	0xbf2e9348	-0.68193483
83	0x3f407523	0.75178736
84	0xbfd1b824	-1.638432
85	0xbf0952e0	-0.5364208
86	0x3e31da64	0.17368466
87	0xbe867590	-0.26261568
88	0x3e7da1ec	0.247688
89	0xbf3e1cc7	-0.7426266
90	0xbf961294	-1.172442
91	0x3f5e2b5a	0.867849
92	0xbf4faa7f	-0.8111953
93	0xbeb9e2bd	-0.363058
94	0x3f0928e5	0.53578025
95	0x400ba844	2.182145
96	0x3f47953e	0.779621
97	0x3fa253e6	1.2681854
98	0x3f66a7a5	0.90099555
99	0xbf90219c	-1.1260257
100	0x3fc3bdb0	1.5292263
101	0xbf64e9a1	-0.8941899
102	0xbf85044e	-1.0391939
103	0x3f9851aa	1.1899922
104	0x3fc24f26	1.5180404
105	0x3f291191	0.6604243
106	0xbdfdaf6b	-0.12386974
107	0xbdfbd929	-0.122972794
108	0xc01694c5	-2.3528302
109	0xbf5300e2	-0.8242322
110	0xbf8958c0	-1.0730209
111	0xbf9e6985	-1.2375952
112	0x3f44e204	0.7690737
113	0xbf5be36b	-0.8589389
114	0x3ff57ad3	1.9178108
115	0x3f7cc411	0.98736674
116	0x3df72701	0.12067986
117	0x3e26506c	0.16241616
118	0x3f73f807	0.95300335
119	0xbe6d9559	-0.23201503
120	0x4027f5af	2.6243703
121	0xbe8ee451	-0.27908567
122	0x3dfa087b	0.12208649
123	0x3ff38c97	1.902728
124	0xbff4cff1	-1.9125959
125	0x3fe96a76	1.8235614
126	0x3d5b463f	0.05353379
127	0x3ef8ec0c	0.4861759
128	0x3f163a2d	0.5868252
129	0xbfe814c9	-1.8131343
130	0x3ebe3e82	0.37157065
131	0x3f937a1c	1.152164
132	0xbe8313fa	-0.25601178
133	0xbfec9478	-1.8482809
134	0x3f3774c3	0.7166254
135	0xbf4775da	-0.779142
136	0xbfca7a38	-1.5818548
137	0xbff8f047	-1.9448327
138	0x3ef5e9e8	0.4803002
139	0x3f3f25b7	0.74666923
140	0x4017da41	2.3726962
141	0x3f2735a0	0.653162
142	0x3fd7b293	1.6851372
143	0xbfd00aa5	-1.6253248
144	0xbfad866b	-1.3556646
145	0xbf828012	-1.0195334
146	0x3fc3f677	1.530959
147	0x3f0b080f	0.5430917
148	0x3f156800	0.58361816
149	0xbec85852	-0.39129883
150	0x3f0d75a8	0.55257654
151	0xbfbf9efb	-1.4970392
152	0x3f3392d7	0.70145935
153	0x3f0f3631	0.55942065
154	0x3bc79b85	0.0060915374
155	0x3f9c3414	1.2203393
156	0x3fe2c0db	1.7715105
157	0x3ff7d6c3	1.9362415
158	0xbf2d17cc	-0.67614436
159	0x4022bca3	2.5427635
160	0x3ebff93d	0.3749484
161	0xbba820fb	-0.0051308847
162	0xbf54003f	-0.82812876
163	0xbe4bb3ab	-0.19892757
164	0xbf033944	-0.51259255
165	0xbfa2ea5d	-1.2727772
166	0x3f9b3955	1.2126871
167	0x3f83a1ff	1.0283812
168	0x3ea24469	0.31692818
169	0x3fb9aa51	1.4505101
170	0x3fa8f58d	1.3199936
171	0xbfea3c92	-1.8299735
172	0xbeb53d48	-0.35398316
173	0xbf77c536	-0.96785295
174	0xbc9abac4	-0.018887885
175	0xbdf30c34	-0.11867562
176	0x3f6d9c1b	0.92816323
177	0x3f9c9a8b	1.2234663
178	0x3f10ccff	0.565628
179	0x3fdc318b	1.7202619
180	0xbf849738	-1.0358648
181	0x3e2c658e	0.16835615
182	0xbe8315e5	-0.25602642
183	0xbefd3ef3	-0.4946209
184	0x3fe9d471	1.8267957
185	0xbef6ecbb	-0.48227486
186	0x3e0a6a2f	0.13517068
187	0x3fb195fa	1.3873894
188	0x3dfe0df6	0.124050066
189	0x3f8a3912	1.0798666
190	0xbf027971	-0.50966555
191	0x3f81a42c	1.0128226
192	0xbf2d9283	-0.67801684
193	0x3f459b99	0.7719055
194	0x3fce9e95	1.6142145
195	0xbdd83e20	-0.105587244
196	0x3ea1fcc8	0.3163817
197	0xc002d4ed	-2.044246
198	0xc036c326	-2.855661
199	0xbf2a8c03	-0.6661989
200	0xbeab4531	-0.33451226
201	0x3fb9558f	1.4479235
202	0xbf5aa19f	-0.85402864
203	0x3ea4532d	0.32094708
204	0xbfd62540	-1.6730118
205	0xbd865406	-0.06558995
206	0x3f49bf20	0.7880726
207	0xbf1332b5	-0.5749925
208	0x3f8810b1	1.0630094
209	0x3fa3dc7a	1.2801659
210	0xbe9c94e2	-0.3058234
211	0x3f8e9cab	1.1141561
212	0xbd441554	-0.047871903
213	0x3fee0026	1.8593795
214	0x3fd6121e	1.6724279
215	0x3f9f4c91	1.2445241
216	0xbf687f30	-0.9081907
217	0x3fc341f9	1.5254508
218	0x3f9dc609	1.232606
219	0xbf21afb3	-0.6315872
220	0x3f0a2ef5	0.539779
221	0xbf4a9f48	-0.79149294
222	0x3fbd2cc4	1.4779286
223	0x3fbaf3b4	1.4605622
224	0x3fe5ac17	1.7943143
225	0xbea5ec3c	-0.32406795
226	0xbe691982	-0.22763637
227	0xbfb7c4e2	-1.4356959
228	0x3fa2699d	1.2688481
229	0x3fb77ecf	1.4335574
230	0x3eb0ac7a	0.3450659
231	0x3ef3eda0	0.4764223
232	0xbe06e5fc	-0.1317367
233	0x3eab13b7	0.3341348
234	0x3f5819a5	0.8441413
235	0xbfbbd265	-1.4673582
236	0x3fd0ac2e	1.6302545
237	0xc01c5928	-2.4429417
238	0xbf7662a2	-0.9624425
239	0x3e9453b2	0.28970104
240	0x3e86d0f6	0.263313
241	0x3f8cd003	1.100098
242	0x3fdebec2	1.7401965
243	0xbf3adaa6	-0.7298988
244	0xbf6c2334	-0.92241216
245	0xbdf0d144	-0.11758664
246	0xbe6b6ba8	-0.22990286
247	0xbd7da6f3	-0.061926793
248	0x3efb14fb	0.49039444
249	0xbf31d014	-0.6945813
250	0xbf23ca4e	-0.6398057
251	0x3f882d88	1.0638895
252	0xbd302d26	-0.043011807
253	0xbfa25593	-1.2682365
254	0xbd30486a	-0.04303781
255	0x3f1336b7	0.57505363

linear1.weight f4 [128, 20]
0	0xbf209d40	-0.62739944
1	0x3f133a8b	0.57511204
2	0x3ecca737	0.39971325
3	0x3f5fad57	0.8737387
4	0x3ef4b3d8	0.4779346
5	0xbe60b84d	-0.21945305
6	0xbed850b4	-0.42249072
7	0x3f43f5a6	0.76546705
8	0x3f173d2d	0.5907772
9	0xbe46388a	-0.19357505
10	0xbe9c1531	-0.30484918
11	0xbf092ffd	-0.5358885
12	0x3f5cde59	0.86276776
13	0x3ed5f861	0.4179106
14	0x3efeb5dd	0.49748126
15	0x3ec73ae7	0.38912126
16	0xbea90207	-0.3300936
17	0xbe86311c	-0.26209342
18	0x3eef88f7	0.46784183
19	0xbe3fb173	-0.18720035
20	0xbe597c0b	-0.21238725
21	0xbf5ccd31	-0.862506
22	0x3e04111f	0.12897156
23	0x3dd2b40f	0.1028825
24	0x3ea77380	0.32705307
25	0x3eaf67fe	0.34259027
26	0xbf2e34e9	-0.68049484
27	0x3eef8b1b	0.46785817
28	0x3e2e897c	0.17044634
29	0xbee13cf7	-0.43991825
30	0xbf4be944	-0.7965281
31	0x3d88b3f3	0.066749476
32	0x3e8b39f3	0.2719265
33	0xbe8fbcf1	-0.28073838
34	0xbf5f179c	-0.871454
35	0xbed4f972	-0.41596562
36	0xbf54709d	-0.82984334
37	0xbe37800b	-0.17919938
38	0xbf0d835b	-0.5527856
39	0x3e0e9035	0.13922198
40	0xbf6a7812	-0.9158946
41	0xbeaa511b	-0.33265004
42	0x3eb60979	0.35554102
43	0xbd934f8c	-0.07192907
44	0x3e13bbc9	0.14427103
45	0xbeae44ff	-0.34037015
46	0xbed5f957	-0.41791794
47	0x3e1a9b6b	0.1509835
48	0xbbf270ef	-0.0073987166
49	0x3d50b600	0.05095482
50	0x3d8bf0bf	0.06833028
51	0xbf33a400	-0.7017212
52	0x3ebfdbb4	0.37472308
53	0xbec00ae6	-0.37508315
54	0xbf32f75c	-0.6990869
55	0x3d328121	0.04358018
56	0x3e3212df	0.17390011
57	0xbefd2529	-0.49442413
58	0x3f258e63	0.6467039
59	0xbea0ad41	-0.31382182
60	0xbe4f5dc9	-0.2025062
61	0x3ec12237	0.37721416
62	0x3e360079	0.17773618
63	0x3f0638d2	0.5243045
64	0x3e124963	0.14285807
65	0x3f016c99	0.5055633
66	0xbd89a592	-0.06721033
67	0x3ef98a1a	0.48738176
68	0xbf169664	-0.5882323
69	0xbe62c7e0	-0.22146559
70	0x3ebeeef9	0.37291697
71	0xbec540e7	-0.3852608
72	0xbf14fd4d	-0.58199006
73	0x3f32305d	0.69605047
74	0xbb6dac16	-0.0036265901
75	0x3fb22b91	1.3919545
76	0x3e5e9a06	0.21738443
77	0xbd1a6259	-0.037691448
78	0xbf62e197	-0.8862547
79	0xbf742029	-0.9536157
80	0x3e3cf611	0.18453242
81	0xbea2fcb0	-0.3183341
82	0x3f1ead4a	0.6198317
83	0x3e9e9f1c	0.30980766
84	0x3eeb3b1c	0.45943534
85	0x3f5c40c2	0.8603631
86	0xbeaec0c9	-0.34131458
87	0x3daa7b40	0.08324289
88	0x3f11dd4a	0.56978285
89	0xbe92754c	-0.28605115
90	0x3e13351d	0.1437573
91	0x3df91682	0.12162496
92	0x3f5e0d3a	0.8673893
93	0x3f8e9182	1.1138155
94	0xbe624873	-0.2209795
95	0xbf213358	-0.6296897
96	0x3f0eee8e	0.55832756
97	0x3ea6d635	0.32585302
98	0x3f6a2762	0.91466343
99	0x3e1001f5	0.14063247
100	0xbf0075c8	-0.5017972
101	0xbde118e8	-0.109910786
102	0xbe72a388	-0.23695195
103	0xbea760b5	-0.3269097
104	0x3ee44188	0.44581246
105	0x3e063434	0.13105851
106	0x3e92cc3d	0.28671446
107	0xbd2de83e	-0.04245781
108	0x3dc19dee	0.09453951
109	0x3f0ab9d0	0.5418978
110	0xbe559089	-0.20855917
111	0x3f9476ca	1.1598752
112	0xbcde37fc	-0.027126305
113	0xbe9fe0a7	-0.31226084
114	0x3d8a10d5	0.06741492
115	0x3f782e7a	0.9694592
116	0xbea922da	-0.33034402
117	0x3f9827d4	1.1887155
118	0xbf4b2575	-0.7935403
119	0xbee09384	-0.43862545
120	0xbf3bac96	-0.7331022
121	0xbe3b0e78	-0.18267238
122	0xbe9f6e7c	-0.3113898
123	0xbf1a0f10	-0.60179234
124	0x3f377e47	0.7167706
125	0xbd9d8c86	-0.07692818
126	0x3f0e66fa	0.5562588
127	0xbeeb3723	-0.45940503
128	0x3dd63e58	0.1046111
129	0x3f367eb6	0.71287096
130	0x3e7be569	0.24599232
131	0xbe0b4ba3	-0.13603072
132	0xbe84a281	-0.2590523
133	0xb999eca3	-0.00029358742
134	0xbf0ca2cf	-0.54935926
135	0x3e5eebd2	0.21769646
136	0xbf4ab95f	-0.79189104
137	0x3eb13034	0.3460709
138	0xbf02c747	-0.51085323
139	0x3f3f65a2	0.74764454
140	0xbe516814	-0.20449859
141	0xbf758e7c	-0.9592054
142	0xbe8ad320	-0.271142
143	0xbf6dbc57	-0.9286551
144	0x3c536cd8	0.012904368
145	0x3beba339	0.0071910885
146	0xbede3f4d	-0.4340767
147	0xbf5bc4e8	-0.8584733
148	0xbf2fb272	-0.6863166
149	0xbf04f6bb	-0.5193898
150	0xbcd4f5cf	-0.025996117
151	0xbf10e354	-0.56596875
152	0xbd86c03c	-0.065796345
153	0x3e0df7da	0.13864079
154	0xbe483251	-0.19550444
155	0x3e6ae581	0.22939111
156	0xbf79f077	-0.97632545
157	0xbf15cca0	-0.5851536
158	0xbec1e868	-0.37872624
159	0xbf9344ec	-1.1505408
160	0x3ec5af84	0.3861047
161	0xbddd20ff	-0.10797309
162	0x3ee96edf	0.455924
163	0x3edc3b3b	0.4301394
164	0x3cadae45	0.021201262
165	0xbe758bfa	-0.23979178
166	0x3ec2914f	0.38001487
167	0x3f06c7c4	0.5264857
168	0xbecb9b4c	-0.3976692
169	0xbb4148c2	-0.002949283
170	0x3f146b46	0.57976186
171	0x3f246b72	0.6422645
172	0xbe855da8	-0.26048017
173	0x3f20e177	0.6284403
174	0x3f64063c	0.8907201
175	0xbf7067b1	-0.9390822
176	0xbf4ea3f1	-0.80718905
177	0x3f63469f	0.88779634
178	0x3e9c821e	0.30568022
179	0x3ef45762	0.47722918
180	0x3e5dd04a	0.21661487
181	0x3f46948b	0.7757041
182	0x3ec59bfc	0.3859557
183	0x3d665c16	0.056240164
184	0x3eee000c	0.4648441
185	0xbd8cda39	-0.0687756
186	0xbe0dfc0d	-0.13865681
187	0xbe22e03b	-0.1590585
188	0x3e8d966a	0.2765382
189	0xbe929fc3	-0.28637514
190	0x3ea0f0d6	0.31433743
191	0x3f989731	1.192114
192	0xbf746c1c	-0.9547746
193	0x3e980315	0.2968985
194	0x3e8183f3	0.25295982
195	0x3e43fe53	0.19139986
196	0x3f841d62	1.0321467
197	0x3e236d1c	0.1595959
198	0x3ed34eb7	0.41270992
199	0xbef02bd2	-0.46908432
200	0xbe7c527c	-0.2464084
201	0xbc31497e	-0.010820745
202	0x3cbae99f	0.022816477
203	0x3d97e063	0.07415845
204	0x3e31fc3d	0.17381378
205	0x3e08de6e	0.133661
206	0xbeffe8fe	-0.49982446
207	0x3bf6aa5e	0.0075276336
208	0xbe5927aa	-0.21206537
209	0xbd10968f	-0.035299834
210	0xbf19892a	-0.5997492
211	0xbdbb7dfa	-0.091548875
212	0xbf93c9dc	-1.1545978
213	0x3e9ac958	0.30231738
214	0x3b9d6cfa	0.004804251
215	0xbdbae764	-0.091261655
216	0x3e95d416	0.2926337
217	0x3e15b168	0.14618456
218	0xbf17d101	-0.5930329
219	0x3fafbe18	1.3729887
220	0x3eb962c7	0.36208174
221	0x3e7e2a3b	0.24820797
222	0xbf2491b3	-0.6428482
223	0x3ee47c3d	0.44626036
224	0x3f0392d3	0.5139591
225	0x3ed61775	0.4181477
226	0x3ef247bf	0.47320363
227	0xbe15ee50	-0.1464169
228	0xbefb7836	-0.4911515
229	0xbf34fb0c	-0.7069557
230	0x3eadee4b	0.33970866
231	0x3f3e75b9	0.7439838
232	0x3e0687da	0.13137761
233	0xbee2a73e	-0.4426822
234	0x3f7a0eb3	0.9767868
235	0x3f087081	0.5329667
236	0x3f66b14d	0.9011429
237	0xbf2975a0	-0.66195107
238	0x3f5b5e68	0.8569093
239	0x3f080524	0.53132844
240	0x3d6c2c66	0.05765953
241	0xbeb836cc	-0.35979307
242	0xbde4d81b	-0.11174031
243	0x3c5c6028	0.01345066
244	0x3ef9ed32	0.48813778
245	0x3f30e29f	0.69095796
246	0xbe79ed32	-0.24406889
247	0xbe68f558	-0.22749841
248	0x3bb0e8c9	0.005398844
249	0x3e3167f2	0.17324808
250	0xbf7ea25b	-0.99466485
251	0xbe8e4cdb	-0.2779301
252	0xbe8b11d2	-0.27162033
253	0x3a949494	0.0011335784
254	0x3f379607	0.717133
255	0x3d7e7f28	0.062132984

linear1.bias f4 [128]
0	0x3f0f3eb3	0.55955046
1	0x3e57e256	0.21082434
2	0x3e12293c	0.14273542
3	0x3ecf30a0	0.40466785
4	0x3f31b227	0.69412464
5	0x3e7ce3ac	0.24696225
6	0xbee60bd7	-0.44930908
7	0x3f098797	0.5372252
8	0x3e86a26f	0.26295802
9	0x3f0b115e	0.54323375
10	0x3e9ac93c	0.30231655
11	0x3f150b59	0.5822044
12	0x3c8ac647	0.01694025
13	0x3ea4285e	0.32062048
14	0x3f05f4e5	0.52326804
15	0xbdfd3c19	-0.12364978
16	0x3ebc40f5	0.36768308
17	0x3e04a697	0.12954174
18	0x3eae64e4	0.34061348
19	0x3ed46a29	0.41487244
20	0x3eaba2ef	0.33522746
21	0x3e146cf9	0.14494695
22	0x3f0895e4	0.53353715
23	0x3eb2161b	0.3478249
24	0x3ed8f7c2	0.42376524
25	0x3ea722ea	0.32643825
26	0x3dc1f513	0.09470572
27	0x3f23b55b	0.639486
28	0xbe8add15	-0.27121797
29	0x3ee80eb4	0.45323718
30	0x3f438657	0.7637686
31	0x3ec4ba23	0.3842326
32	0x3e1911c4	0.14948183
33	0xbd95597a	-0.07292457
34	0x3cd6a4a5	0.026201556
35	0x3ec03efc	0.37548053
36	0x3ef3d75a	0.47625238
37	0xbdaf85e9	-0.08570463
38	0xbee1936e	-0.44057792
39	0x3f203134	0.6257508
40	0x3d913116	0.070894405
41	0x3be8a941	0.0071002548
42	0x3f4f373a	0.80943644
43	0x3f0bc922	0.5460378
44	0x3e969568	0.29410863
45	0x3f132405	0.57476836
46	0xbe5b40bb	-0.21411411
47	0xbe413770	-0.18868804
48	0x3e5c511a	0.21515313
49	0xbe1f0f9a	-0.15533295
50	0xbc63f0d1	-0.013912396
51	0xbed71f6f	-0.4201617
52	0x3f66c80c	0.90149
53	0x3d8fe13c	0.07025382
54	0x3f1a2659	0.60214764
55	0x3e8197ac	0.2531103
56	0x3ef284f1	0.4736705
57	0x3e2faccb	0.17155759
58	0x3ecf4649	0.4048331
59	0x3e05394d	0.1301014
60	0x3d389663	0.045065295
61	0xbe4e332b	-0.20136707
62	0x3f096436	0.53668535
63	0x3e47de8a	0.19518486
64	0x3f2442cd	0.6416443
65	0x3e110074	0.14160329
66	0xbd7ec8cb	-0.06220321
67	0x3c51b962	0.012800546
68	0x3e32f82d	0.17477484
69	0x3ee80b5f	0.45321175
70	0x3eb5a0c6	0.35474223
71	0x3f095b0b	0.53654546
72	0xbe7aafd7	-0.2448114
73	0x3e291cb0	0.1651485
74	0x3ce85da4	0.028364964
75	0x3f1bd25c	0.6086786
76	0xbe930c88	-0.28720498
77	0x3e802a89	0.25032452
78	0x3f1082de	0.5644969
79	0x3cad4ee0	0.021155775
80	0x3f125b6d	0.57170755
81	0x3f3fb135	0.7487977
82	0x3d23d0ec	0.039994165
83	0x3f446e0c	0.7673042
84	0x3ecc3eca	0.39891654
85	0xbe7619f1	-0.24033333
86	0x3ee6cf1a	0.4507988
87	0x3ea9abbe	0.3313884
88	0x3f1f2773	0.6216957
89	0xbddce890	-0.10786545
90	0x3f383159	0.719503
91	0x3e753bb5	0.23948558
92	0xbeffbf8a	-0.4995082
93	0x3e1f126b	0.1553437
94	0xbe01ff04	-0.12694937
95	0x3e98db76	0.29854935
96	0x3ec59861	0.38592818
97	0x3e420d1d	0.18950315
98	0x3de0453b	0.10950705
99	0xbd686739	-0.056739066
100	0x3e4dd917	0.20102344
101	0x3eb429b7	0.35188076
102	0x3f2a365f	0.66489214
103	0x3eb92fe6	0.36169356
104	0xbe829a5a	-0.25508386
105	0x3f246fc2	0.6423303
106	0xbe4e2746	-0.20132169
107	0x3c6f27f1	0.014596925
108	0x3eeaae38	0.45836043
109	0x3eb01b01	0.34395602
110	0x3eec544c	0.46158063
111	0x3e654b6c	0.22392052
112	0x3cc6678b	0.024219295
113	0x3f0eb997	0.5575194
114	0x3edc49b7	0.4302499
115	0xbdc0e356	-0.09418361
116	0x3f79eb7b	0.9762494
117	0xbe3afc17	-0.18260227
118	0x3f6688d3	0.9005253
119	0x3f152ed7	0.58274597
120	0x3f0daf5b	0.55345696
121	0x3f050d8d	0.519738
122	0xbdf8c4ce	-0.121469125
123	0x3ab4388e	0.0013749765
124	0xbe15c38d	-0.14625378
125	0x3dd09ac4	0.10185769
126	0xbebb1c34	-0.36544955
127	0x38565c95	5.11078e-05

linear2.weight f4 [482, 128]
0	0xbda7c9b1	-0.081927665
1	0xbe954e5b	-0.29161343
2	0x3e19486d	0.14969034
3	0x3dcd5882	0.10026647
4	0xbd967728	-0.07346946
5	0xbd8c2b1c	-0.0684416
6	0xbe22cfa0	-0.15899515
7	0x3dfcba06	0.12340169
8	0xbbcc4a86	-0.00623447
9	0x3e0dbbcd	0.13841172
10	0xbe35a120	-0.17737246
11	0x3cff34f0	0.031153172
12	0x3ee3bca3	0.44479856
13	0xbda65fca	-0.08123739
14	0xbc3e34e1	-0.011609287
15	0x3eabb3d7	0.33535644
16	0x3ecc1279	0.39857844
17	0xbddf1364	-0.1089237
18	0x3e0133b8	0.12617385
19	0x3dce74a8	0.10080844
20	0xbe23086a	-0.15921178
21	0x3dfea6ea	0.1243418
22	0x3a5a290c	0.00083221565
23	0x3e042214	0.12903625
24	0x3e6f1952	0.23349503
25	0x3e32a131	0.17444302
26	0xbc9b4630	-0.018954366
27	0x3e80ad36	0.2513215
28	0x3d1f9d9a	0.03896866
29	0x3dfd5026	0.12368803
30	0xbc0353bc	-0.008015569
31	0x3e47e451	0.1952069
32	0xbe9590fd	-0.2921218
33	0xbe9b454c	-0.30326307
34	0x3e20616e	0.15662166
35	0x3c5cc9b9	0.013475829
36	0x3e9ca071	0.30591157
37	0x3d909dea	0.0706137
38	0x3ea0a43f	0.3137531
39	0xbe2bd92b	-0.16782062
40	0xbe1bd052	-0.15216187
41	0x38f67183	0.00011751337
42	0xbe4bb9e1	-0.19895126
43	0xbc749351	-0.014927701
44	0xbe0a0720	-0.1347928
45	0xbdb4419c	-0.088015765
46	0x3dafae0b	0.08578118
47	0xbd0a7660	-0.033804297
48	0x3d30415f	0.043031093
49	0x3eadfa9b	0.3398026
50	0x3e074a92	0.1321204
51	0xbc42d5f5	-0.011891832
52	0xbe3393ed	-0.17536898
53	0xbc8cd161	-0.017189683
54	0xbe22334f	-0.15839885
55	0x3db25cd9	0.087091155
56	0xbc73bffe	-0.0148773175
57	0xbadafaab	-0.0016706785
58	0x3e2859b2	0.16440466
59	0x3da52f0c	0.08065614
60	0xbdef2c8c	-0.116784185
61	0xbe0afbd0	-0.13572621
62	0xbefbb575	-0.49161878
63	0x3e36bf96	0.17846522
64	0xbcdc0224	-0.02685649
65	0x3e38dff7	0.18054186
66	0x3e400889	0.18753256
67	0x3e192dbf	0.14958857
68	0x3e0de072	0.1385515
69	0x3e1ca8e8	0.15298808
70	0xbc2d81b6	-0.0105900075
71	0x3ea4d2fa	0.32192212
72	0x3d75c67b	0.06000374
73	0x3e3c9886	0.18417558
74	0xbc943919	-0.018093633
75	0x3ea458bf	0.32098958
76	0xbda67da9	-0.081294365
77	0xbe048940	-0.12942982
78	0x3e500d3f	0.20317553
79	0xbbbbb33c	-0.0057281535
80	0xbe9496be	-0.29021257
81	0x3cb4891f	0.02203804
82	0x3eb41bc9	0.35177448
83	0xbf072635	-0.52792674
84	0x3dfdccc2	0.1239257
85	0x3ec0f6b4	0.3768822
86	0x3e010c54	0.12602359
87	0xbd2d8fdc	-0.042373523
88	0x3e546437	0.20741354
89	0x3d099858	0.033592552
90	0x3e053e71	0.13012101
91	0x3e2c0b9c	0.16801304
92	0x3ea4319a	0.32069093
93	0x3e6d640c	0.23182696
94	0x3dae6108	0.08514601
95	0xbdb6cdad	-0.08925948
96	0xb95edbab	-0.00021253403
97	0xbdbd7ec2	-0.09252693
98	0x3d81607f	0.06317233
99	0xbd0e999d	-0.034814466
100	0x3c9627a1	0.018329443
101	0xbed81535	-0.4220368
102	0x3b1acf8c	0.0023622243
103	0x3de5e569	0.11225397
104	0xbe73ce72	-0.23809221
105	0x3d1d51c7	0.038408067
106	0xbdb277c7	-0.08714252
107	0x3de1a5b9	0.11017937
108	0xbe7b378d	-0.2453291
109	0x3deb2ada	0.11482783
110	0x3e224f0b	0.15850465
111	0x3e60201a	0.21887246
112	0xbe02a0a1	-0.12756588
113	0x3e1f6566	0.15566024
114	0x3cedbcaf	0.029020635
115	0x3c195584	0.009358767
116	0x3cb8b81b	0.022548726
117	0xbe2c3c33	-0.16819839
118	0xbdac7388	-0.08420473
119	0xbe30757a	-0.17232314
120	0xbe6a4e07	-0.22881328
121	0x3ec5387d	0.3851966
122	0x3dbca89c	0.09211847
123	0x3ec167ee	0.37774605
124	0x3e9e9388	0.30971932
125	0x3cbd2a4c	0.023091458
126	0xbc953ce9	-0.01821752
127	0x3eeec2e0	0.46633053
128	0x3e04a3c6	0.129531
129	0x3edb1ff7	0.42797825
130	0xbcb41d4b	-0.021986624
131	0x3e1044ab	0.14088695
132	0x3e9619e6	0.29316634
133	0xbdb67bd6	-0.089103386
134	0x3dfbc69d	0.12293742
135	0xbddde4fe	-0.108346924
136	0x3e46f234	0.1942833
137	0x3e9455dc	0.28971756
138	0xbe10fc3c	-0.1415872
139	0x3e7f6cc6	0.24943838
140	0xbeb3e48f	-0.35135314
141	0x3e9ff05f	0.31238076
142	0x3d8478e3	0.0646837
143	0xbdd2a3d7	-0.10285156
144	0xbc7f0311	-0.015564696
145	0xbab1e415	-0.0013572002
146	0x3def7f2c	0.11694178
147	0xbe2be0e0	-0.16785002
148	0xbec220ab	-0.3791555
149	0x3dd3b724	0.10337666
150	0x3dd65fff	0.104675286
151	0xbdc670c5	-0.09689478
152	0x3ea1be2b	0.315904
153	0x3e0007b0	0.12502933
154	0xbea8bed0	-0.32958078
155	0xbe133aeb	-0.14377944
156	0x3d83f84d	0.06443844
157	0x3ebce19d	0.3689088
158	0xbe562a0f	-0.20914482
159	0xbe3337ae	-0.17501709
160	0x3b5d9889	0.0033812842
161	0xbd5ee445	-0.054416914
162	0x3c152388	0.00910271
163	0x3ccefbcf	0.025266556
164	0xbc2d427e	-0.010574935
165	0x3e4b33a8	0.19843924
166	0x3d04bb9a	0.032405473
167	0x3e8e8883	0.27838525
168	0x3e56afda	0.2096552
169	0xbda24114	-0.07922569
170	0x3d7bd07b	0.06147812
171	0x3cab97c7	0.020946397
172	0x3dce2fc1	0.10067702
173	0x3eb706f6	0.35747498
174	0xbe7def7f	-0.24798392
175	0xbe067610	-0.13130975
176	0xbe46c77e	-0.19412038
177	0xbcdb4656	-0.026766937
178	0xbead0819	-0.3379524
179	0xbe995383	-0.29946527
180	0xbea07073	-0.31335792
181	0x3d74294c	0.059609696
182	0xbd8c06c9	-0.06837232
183	0xbc45e1aa	-0.012077728
184	0xbeec0825	-0.46099964
185	0x3e2d31fd	0.169136
186	0x3e50195c	0.20322174
187	0xbd6d65c6	-0.057958387
188	0xbe1e78b9	-0.1547574
189	0x3e58be27	0.21166287
190	0x3eb0de26	0.34544486
191	0x3de7ca67	0.11317902
192	0xbcf023d7	-0.029313965
193	0x3da90dce	0.08254586
194	0xbdd664f0	-0.10468471
195	0xbde95a79	-0.113942094
196	0x3ec71aae	0.38887542
197	0x3e8864f5	0.26639524
198	0x3d3ddfb5	0.04635592
199	0x3c88d9cb	0.016705414
200	0xbec6f045	-0.38855186
201	0x3d10eff2	0.03538508
202	0xbdf4b851	-0.11949218
203	0xbea1b28d	-0.31581536
204	0xbdcb612b	-0.09930643
205	0x3e35c445	0.17750652
206	0x3d8ddd67	0.06926995
207	0xbd251b5a	-0.040309288
208	0x3d78376c	0.06059973
209	0x3eb6b80f	0.356873
210	0xbc8c00fc	-0.017090313
211	0xbea22530	-0.31668997
212	0xbd818bfa	-0.063255265
213	0xbb1c1c38	-0.002382053
214	0x3e0e3c32	0.1389015
215	0xbe35475a	-0.17703
216	0xbdc8e108	-0.09808546
217	0x3eb994e6	0.36246413
218	0xbe1be050	-0.15222287
219	0x3d898e0c	0.067165464
220	0x3da1cb9e	0.07900165
221	0x3d8f3a79	0.06993575
222	0x3da39565	0.07987479
223	0xbe9cea1e	-0.30647367
224	0xbc41cd9c	-0.011828806
225	0x3e2682b7	0.16260801
226	0xbddb3ca0	-0.10704923
227	0x3e56c567	0.2097374
228	0xbea34570	-0.31888914
229	0x3dcc0bdf	0.09963202
230	0xbd324136	-0.04351922
231	0x3df9c513	0.12195792
232	0xbd9e50f3	-0.077302836
233	0x3c18e71e	0.009332446
234	0x3e23fb0c	0.16013736
235	0xbd5c29a3	-0.053750645
236	0x3ecf3f2d	0.40477887
237	0x3e5b0142	0.21387199
238	0x3ed6ccc0	0.41953087
239	0x3d576b6a	0.052592672
240	0xbc5cd9fd	-0.013479707
241	0xbeb681a7	-0.35645792
242	0x3e68dab8	0.22739685
243	0xbe85c5d0	-0.2612748
244	0xbe0608f9	-0.1308936
245	0xbdb4ea82	-0.08833791
246	0xbe06e189	-0.13171972
247	0x3d819410	0.06327069
248	0x3ebe5fb0	0.3718238
249	0xbc89fbe3	-0.016843742
250	0xbda09224	-0.07840374
251	0x3e3b4350	0.18287396
252	0x3eadf546	0.3397619
253	0x3e848cf4	0.2588879
254	0x3e33e719	0.17568626
255	0x3d6c5604	0.05769922

linear2.bias f4 [482]
0	0xbe287c96	-0.16453776
1	0x3e1d9896	0.15390238
2	0x3c90e318	0.017686412
3	0x3be39d2f	0.006946228
4	0xbdb47481	-0.08811284
5	0xbcd97e41	-0.02654946
6	0xbd3e3216	-0.046434484
7	0x3e288705	0.16457756
8	0xbc1bff8b	-0.009521375
9	0xbcfc97f7	-0.030834181
10	0xbcb3fcb8	-0.021971092
11	0x3deca3ec	0.11554703
12	0xbdbed361	-0.09317661
13	0x3d2530bc	0.04032968
14	0xbdae9e36	-0.0852627
15	0x3d176536	0.036961757
16	0x3a775867	0.0009435475
17	0xbd8c3677	-0.06846326
18	0xbd2ef735	-0.042716224
19	0xbdab6d64	-0.08370474
20	0x3d9214e5	0.071328916
21	0x3d2de2e2	0.0424527
22	0xbd40281b	-0.046913248
23	0xbc633dac	-0.013869684
24	0x3c6e82e1	0.014557571
25	0xbdac056f	-0.08399474
26	0xbc02e7b0	-0.007989809
27	0x3d86cfe1	0.065826185
28	0x3d5f815e	0.054566734
29	0xbdb3d2de	-0.08780454
30	0x3d8380c0	0.064210415
31	0x3d30c701	0.043158535
32	0x3d6fad3d	0.058514822
33	0xbd81fe41	-0.06347323
34	0xbd80880d	-0.062759496
35	0xbd699b26	-0.057032727
36	0x3d511e80	0.051054478
37	0xbd5a14be	-0.053242438
38	0xbdcb8841	-0.09938098
39	0x3c1db02b	0.009624521
40	0xbdb768bf	-0.089555256
41	0xbdcc6b30	-0.09981382
42	0x3d7a9413	0.06117637
43	0xbcdb00f1	-0.026733847
44	0xbd8e7c08	-0.06957251
45	0xbd64c404	-0.055850998
46	0x3cfc6085	0.030807743
47	0xbcf32408	-0.029680267
48	0xbd19679f	-0.037452336
49	0xbdc7f288	-0.09763056
50	0xbdd91d64	-0.10601309
51	0xbd9049c1	-0.070453174
52	0xbd35ecaa	-0.044415154
53	0x3c5ce238	0.013481669
54	0xba93faa5	-0.0011289908
55	0x3ca96853	0.020679628
56	0x3d07b008	0.03312686
57	0x3f19f08f	0.6013269
58	0xbbbc1812	-0.005740174
59	0xbddeede3	-0.10885217
60	0x3d3c2e3a	0.045942523
61	0xbdd0fcbd	-0.10204456
62	0xbd69b3e4	-0.057056323
63	0xbcca0e47	-0.024665011
64	0xbc37ec57	-0.011225781
65	0xbd336bff	-0.043804165
66	0xbd2be501	-0.041966442
67	0x3dfdabf9	0.12386317
68	0xbc035866	-0.008016681
69	0x3d8d5994	0.06901851
70	0xbd8fb0e1	-0.07016159
71	0x3d8ca2af	0.06866967
72	0xbbffd282	-0.007807077
73	0x3d6a2f4a	0.057174005
74	0xbcd928ee	-0.026508775
75	0xbca971be	-0.02068412
76	0x3d5de9cb	0.05417804
77	0xbd9e61bd	-0.07733486
78	0x3d305617	0.04305085
79	0xbd808449	-0.062752314
80	0xbd1f8bac	-0.03895156
81	0x3d031ce2	0.032009967
82	0xbdb09419	-0.086219974
83	0xbdb99d6f	-0.09063231
84	0x3d21947d	0.03944825
85	0x3d1f154c	0.03883867
86	0xbba44071	-0.005012565
87	0xbd3c58f0	-0.045983255
88	0xbcdf6375	-0.027269104
89	0x3d6c0410	0.05762106
90	0xbdd0b531	-0.101908095
91	0xbcfed78f	-0.031108646
92	0xbd856e04	-0.065151244
93	0xbceb7ec5	-0.028746972
94	0xbdc8c5f1	-0.09803379
95	0xbd1c7647	-0.038198736
96	0x3d7a339a	0.061084367
97	0x39d3ba19	0.0004038371
98	0x3db9ff2b	0.090818726
99	0xbb9112b9	-0.0044272807
100	0xbc69a3a9	-0.014260211
101	0x3cd73499	0.026270198
102	0xbd9d5a17	-0.07683199
103	0x3da93bd8	0.082633674
104	0x3c147cd2	0.009062963
105	0xbd3fec0a	-0.046855964
106	0x3d9c3295	0.07626835
107	0xbbf3a1b3	-0.0074350475
108	0xbd0712be	-0.03297686
109	0x3c523af3	0.012831437
110	0xbdc7bf1e	-0.097532496
111	0x3e1c6406	0.15272531
112	0xbca32ee0	-0.019919813
113	0xbdb4d98f	-0.088305585
114	0x3cb818c0	0.02247274
115	0xbcea7220	-0.028618872
116	0xbd7ffe36	-0.062498294
117	0xbb8398f3	-0.0040160357
118	0x3c32bf4f	0.010909869
119	0x39138f75	0.00014072454
120	0x3d76dc44	0.060268655
121	0x3e9fe130	0.31226492
122	0xbda0353c	-0.07822654
123	0x3d247af6	0.040156327
124	0xbd76d224	-0.060259
125	0x3d6aeaa1	0.057352666
126	0xbe0ceb6a	-0.13761678
127	0xbd033024	-0.032028332
128	0xbd21f167	-0.03953686
129	0xbd677015	-0.056503374
130	0x3d9fefba	0.07809396
131	0x3d39af5a	0.045333244
132	0x3e8bd762	0.27312762
133	0xbc8bd05a	-0.017067123
134	0xbdac6459	-0.08417577
135	0x3ce432f5	0.02785633
136	0xbbaddd39	-0.005305913
137	0xbd1e2fca	-0.038619794
138	0xbdf1b63c	-0.118023366
139	0xbd957c8f	-0.07299148
140	0x3d94dee4	0.072690755
141	0xbd987569	-0.07444269
142	0x3d9b14a9	0.075723
143	0xbd32b995	-0.043634016
144	0xba76c4e8	-0.00094134966
145	0xbcd7db87	-0.026349796
146	0x3dc63a5c	0.096791
147	0xbc064e21	-0.008197338
148	0x3de1b707	0.11021238
149	0xbc273022	-0.010204347
150	0xbd11f9ee	-0.035638742
151	0x3dc2d169	0.09512598
152	0xbd955d54	-0.072931916
153	0xbd2bffa6	-0.041991852
154	0x3d7c6622	0.06162084
155	0xbbebd53f	-0.007197052
156	0x3ae6e2ed	0.0017615237
157	0xbda3e930	-0.08003461
158	0xbda67174	-0.08127108
159	0x3c3cc9e6	0.011522746
160	0xbcdf6ae6	-0.027272653
161	0xbd8cb200	-0.06869888
162	0xbd3d7148	-0.04625061
163	0x3d5ed7d0	0.054405034
164	0xbdfabcae	-0.12243019
165	0xbdc2d5cb	-0.09513434
166	0x3c937097	0.017998023
167	0x3d2844e3	0.04108132
168	0xbc70cb3b	-0.014696891
169	0x3cce6a09	0.025197046
170	0x3a1a5bc3	0.00058883074
171	0xbd37c42a	-0.04486481
172	0x3c22b94e	0.009931875
173	0xbd418ad3	-0.047251534
174	0x3d3e7a89	0.046503577
175	0xbd128851	-0.035774533
176	0xbca4a899	-0.020099925
177	0x3d833af1	0.064077266
178	0xbd2fa41a	-0.04288111
179	0xbb624bf2	-0.003453013
180	0x3d2281e3	0.03967465
181	0x3e023cb4	0.12718469
182	0x3c1b0398	0.009461306
183	0x3d7f7c3b	0.062374335
184	0xbcc83aa7	-0.02444203
185	0x3d89a317	0.0672056
186	0xbcbf98aa	-0.023388226
187	0x3de5d9fc	0.11223218
188	0xbcdbcc51	-0.026830824
189	0xbd037e53	-0.032102894
190	0x3e95301d	0.2913827
191	0x3d3dadce	0.04630833
192	0xbd13c80f	-0.036079463
193	0xbc5712a7	-0.013127006
194	0xbd50966f	-0.050924715
195	0x3d46c15c	0.048524246
196	0xbca52eb3	-0.02016387
197	0xbd1cdde0	-0.038297534
198	0xbdb81aa6	-0.08989458
199	0xbd01a91d	-0.03165542
200	0x3d0614d3	0.032734703
201	0xbda1db97	-0.079032116
202	0x3bd3cc66	0.006463575
203	0x3b96b123	0.004598753
204	0xbcbd3577	-0.023096783
205	0x3d9c7af3	0.07640638
206	0xbdba9bc1	-0.09111739
207	0xbd38d780	-0.04512739
208	0xbd941d2c	-0.072321266
209	0xbcfa6426	-0.030565333
210	0xbc976273	-0.018479561
211	0x3eaed306	0.34145373
212	0xbd62791c	-0.05529128
213	0x3d630e05	0.055433292
214	0x3d3a264b	0.045446675
215	0x3c89f446	0.016840111
216	0xbd8ac168	-0.067751706
217	0x3e0b628e	0.13611814
218	0xbc5c2810	-0.013437286
219	0xbd89a463	-0.067208074
220	0x3dc3b0d7	0.09555214
221	0x3b93c1ea	0.0045092003
222	0x3cbb5290	0.022866517
223	0x3d30bac0	0.04314685
224	0xbd4efd7a	-0.050534703
225	0x3d91028a	0.070805624
226	0x3dceef3b	0.10104223
227	0xbda4d92f	-0.08049237
228	0xbd178698	-0.036993593
229	0x3d0cf4bb	0.03441308
230	0x3e0ed9aa	0.1395022
231	0x3ce7119b	0.028206637
232	0x3c06b89e	0.008222727
233	0xbd492a8b	-0.049112838
234	0x3bf9896d	0.0076152594
235	0xbdf0d731	-0.117597945
236	0x3d1bac03	0.03800584
237	0xbd4aacae	-0.049481086
238	0xbd81b4f8	-0.06333345
239	0x3ce3cd9a	0.027808
240	0x3e5a03f2	0.21290568
241	0x3daa4b3d	0.08315132
242	0xbe061918	-0.1309551
243	0xbd5466b9	-0.051855776
244	0xbd66271a	-0.056189634
245	0xbdb46a27	-0.088093095
246	0xbda6dd1c	-0.08147642
247	0x3d47fffd	0.048828114
248	0xbd1bcc88	-0.038036853
249	0xbd817623	-0.06321361
250	0x3d111182	0.035417087
251	0xbd9e20c3	-0.077210926
252	0x3abf0589	0.0014573793
253	0x3d90815f	0.070559256
254	0x3cd9f614	0.026606597
255	0x3a429bbb	0.00074237183
